code/racing_AI_model.pt (torch, 43223 bytes, 6 tensors)

0.weight f4 [128, 13]
000000 6d ec 92 3e 1a ba 2e 3d 63 49 2b be dc be 7f be
       0.28696004 0.04265795 -0.16727214 -0.24975151
000010 9d 85 e5 bd 0d 9e fc bd 42 80 7d be ab 61 e6 3d
       -0.11207125 -0.12334833 -0.24755958 0.112490974
000020 60 d9 6f 3e df b6 81 bd 3a 41 23 b9 f7 3a d7 bd
       0.23422766 -0.06333708 -0.0001556919 -0.105092935
000030 a7 b0 b2 3d 6d 07 85 3e cb 64 27 be 87 e9 c1 bd
       0.087251 0.25982228 -0.16347043 -0.0946837
000040 ef e3 2d bd e9 98 24 be ff 2d e2 3d 18 0f 56 3e
       -0.042453703 -0.16073956 0.11043929 0.20904195
000050 61 b4 25 be 91 b4 77 3e 75 3f 04 3d f1 85 1b 3e
       -0.1618209 0.24189974 0.03228708 0.15187813
000060 b3 31 4d bd b1 2f b7 bd 55 75 00 be f5 91 1e be
       -0.050096225 -0.08944643 -0.12544759 -0.15485366
000070 d4 1d b4 3c 17 0c 72 be c2 ae 17 3e a1 94 81 3e
       0.02198688 -0.23637424 0.14812759 0.25308707
000080 d8 c3 85 3e 02 6c 66 bd 03 63 38 be 10 a5 e2 3d
       0.2612598 -0.056255348 -0.1800652 0.110666394
000090 7f 4d 83 3e ac b3 81 bd 23 f2 76 3c 0d 37 1e be
       0.25645062 -0.06333098 0.015072378 -0.15450688
0000a0 f0 dc 2b be 02 ba 98 bd a1 71 64 bd d8 37 00 be
       -0.167835 -0.07457353 -0.055772427 -0.12521303
0000b0 93 bb 05 3c 7d 90 2c bd b3 04 68 3c c9 4f ec 3d
       0.008162397 -0.042129982 0.014161277 0.11538655
0000c0 51 ea e7 3d 25 0c ee bc 80 73 66 3e 36 15 b3 3c
       0.11323989 -0.029058525 0.22504997 0.0218607
0000d0 69 ee 30 3c 32 9d 7b bd 60 33 87 be 93 af 2b 3e
       0.010799029 -0.06142921 -0.26406384 0.16766195
0000e0 db e7 e9 3d be ab 9f bd c5 cb 3b be 5b c6 d4 3d
       0.11421176 -0.07796429 -0.1833945 0.10389396
0000f0 23 1f e7 bd 70 20 83 3e 64 c1 29 3e fc f8 49 3e
       -0.11285236 0.25610685 0.16577679 0.19723886
000100 fe 43 9f bd 2e c3 05 3e a6 16 7a be 6e 29 45 3e
       -0.0777664 0.13062736 -0.24422702 0.19254085
000110 fe 53 41 3e 4c 2d 97 3d e0 6e 7e 3d 18 5e 55 3d
       0.18879697 0.073816866 0.062117457 0.052091688
000120 d4 db 61 bd 41 81 89 3e 94 dd 31 bd 06 26 02 3e
       -0.055141285 0.26856425 -0.043424204 0.12709817
000130 6a 1c 67 3e f6 75 04 3e 6a 87 2a 3e 5b 51 40 be
       0.22569433 0.12935624 0.16653219 -0.18781035
000140 6a 08 a4 bd 1f a9 60 3e a2 ba e9 3d f4 02 70 be
       -0.08009417 0.21939515 0.114125505 -0.23438627
000150 18 9f 05 be e2 24 59 bc 09 9e 19 3e 2e b0 17 be
       -0.1304897 -0.013253422 0.15001692 -0.14813301
000160 56 25 68 bd cd be 82 bc 30 6a 1d bd 5c 62 54 be
       -0.05667623 -0.015960122 -0.038431346 -0.20740646
000170 89 65 4e 3e d1 99 8d 3e 9c e3 01 3e ad 9d 6d be
       0.2015592 0.27656415 0.12684482 -0.2320468
000180 d1 a7 32 3e 59 3d 74 be 67 31 89 3e c9 ca 81 3e
       0.1744683 -0.23851527 0.26795503 0.25350025
000190 d5 9e 21 be a6 d1 51 bd 9a 5b 5e 3e 95 e2 57 be
       -0.15783246 -0.051225327 0.2171463 -0.21082528
0001a0 0a ec 2b 3e 63 ab 87 bd 2a 85 b6 bd 76 d5 d5 bd
       0.1678926 -0.06624486 -0.08912118 -0.10441105
0001b0 06 fb fd bd 4e 23 78 be d2 19 03 be 3b 8f 6c bd
       -0.124013945 -0.24232218 -0.12802818 -0.057753783
0001c0 09 15 ee 3d b5 3c 1e bd f1 a3 a6 bd ab 62 86 bd
       0.11625106 -0.038632113 -0.08136738 -0.06561788
0001d0 1a bd 3a be 6b 29 68 3e 7b d4 41 be 2f ea d0 bc
       -0.18236199 0.2267205 -0.18928711 -0.025502292
0001e0 33 26 5e 3e 7d b6 3d 3e eb c4 79 3e 47 70 13 be
       0.2169426 0.18526645 0.24391524 -0.14398299
0001f0 05 97 93 be 79 15 78 3e f8 d5 b5 bc 17 66 ac bd
       -0.28826156 0.24226941 -0.022196755 -0.084179096
000200 0b 08 8b be a8 43 97 3d 7c 56 4b 3e a2 02 31 3e
       -0.27154574 0.07385951 0.1985721 0.1728616
000210 f9 15 18 be 44 9e 0f be 40 3d 5f 3d f9 b9 88 3e
       -0.14852132 -0.14025217 0.054501772 0.26704386
000220 78 2a d2 3d e2 32 36 be 6c 55 d2 3d 64 b1 1c 3e
       0.102620065 -0.17792848 0.10270199 0.15302044
000230 70 09 69 3d 54 25 5e 3e 45 03 8d 3e e4 de 3c 3e
       0.056893766 0.21693927 0.27541557 0.18444401
000240 9c aa 1c 3e 7e 1c 77 3e b8 91 0f 3e ae e7 1f 3e
       0.15299457 0.24131963 0.14020431 0.15615723
000250 74 07 6d be b0 c7 ac bd ec 73 b1 3d 06 a0 d1 bd
       -0.23147374 -0.08436525 0.086646885 -0.102356
000260 0c c2 2f 3e 70 b2 20 bd a0 c7 59 3e e9 74 0d be
       0.17163867 -0.03923267 0.21267557 -0.13814129
000270 ed 36 aa bd 6f 34 18 3e 6f c4 bb 3d 70 b1 c5 bd
       -0.083112575 0.14863752 0.09168326 -0.09652984
000280 94 da f2 bd 5c 84 2e be 75 91 3b be ce f4 67 be
       -0.11858097 -0.17042679 -0.18317206 -0.2265198
000290 7f 76 08 be 4d 84 9f 3d 6f fb 42 be 57 78 81 3e
       -0.13326453 0.07788906 -0.19041227 0.25287125
0002a0 18 92 93 bd a7 2f 95 bb b6 7c c3 3d 70 58 53 3d
       -0.072055995 -0.0045527997 0.09545271 0.051598012
0002b0 e2 71 e4 bd 7e a3 e0 3d d8 3e 0e be 78 90 34 3e
       -0.11154534 0.10968684 -0.1389116 0.17633235
0002c0 85 10 86 be de 10 2c bd 1f 92 35 be b5 05 5f 3e
       -0.26184478 -0.042008273 -0.17731522 0.21779521
0002d0 cc 33 82 3e 9f 9c 37 bd 83 ac 5b 3e 52 9e af bd
       0.25430143 -0.0448271 0.21452527 -0.08575119
0002e0 2a 0e 2c 3e a4 05 84 bd db f0 6b be ae 5a 6f 3e
       0.16802278 -0.06446388 -0.23041098 0.23374435
0002f0 98 de 95 bd f5 3e 78 3e b0 06 7d be 81 06 81 3e
       -0.07317847 0.24242766 -0.24709582 0.25200275
000300 57 15 53 bd 84 87 d4 3d 66 f7 b6 3d 45 59 1d 3d
       -0.051534023 0.1037741 0.08933906 0.038415212
000310 b8 c6 26 3d 7b 94 47 3e f6 4e 12 3e 87 6c 2d 3c
       0.040716857 0.19490235 0.14287934 0.010584957
000320 ac fb 6b 3e 0d cc 4e be ae 19 11 be 1c bb 16 be
       0.23045224 -0.20195027 -0.14169952 -0.14719814
000330 45 54 e7 3d 0d 5e 1a 3e 13 d2 2f be 6a f0 f7 3d
       0.1129537 0.1507494 -0.1716998 0.12106402
000340 f6 83 9e 3d 3e 3d f2 3d 32 c6 03 bc 8e a4 2e be
       0.07740013 0.11828087 -0.008042859 -0.1705496
000350 c6 18 6d 3e e1 ac a6 bd 47 c4 00 3e a8 b8 8b be
       0.23153982 -0.08138443 0.12574874 -0.2728932
000360 c3 22 34 be 54 9a 3b 3e 45 d1 30 3d 02 9a 23 be
       -0.17591386 0.1832059 0.043168325 -0.15976718
000370 cd 45 dd 3d d1 9f 67 3d d7 80 4b 3d 1c e1 40 be
       0.10804329 0.056548897 0.049683418 -0.18835872
000380 10 02 6a 3e 50 3d 1f be 8a 80 51 3e 1f 56 1d 3e
       0.2285235 -0.15550733 0.2045919 0.15364884
000390 a6 05 83 be 75 52 2d 3e bc 3f 1b be ff 22 29 3d
       -0.25590247 0.16925986 -0.15161031 0.04129314
0003a0 7f 73 8c be a5 64 56 bc 3d 9d 41 3e e7 cc 83 3e
       -0.27431867 -0.013085519 0.18907638 0.25742266
0003b0 9f c0 99 3d 52 84 0d be f4 6d f5 bd e6 f0 69 3e
       0.07507443 -0.13820007 -0.119838625 0.22845802
0003c0 a5 e5 84 3e 40 f3 07 be 1d 49 12 be 33 81 58 be
       0.25956455 -0.13276386 -0.14285703 -0.21143036
0003d0 05 29 1d bd 1b 74 81 bd 48 33 40 3e 80 34 41 3e
       -0.038369197 -0.063209735 0.18769562 0.18867683
0003e0 46 3f 17 3e 04 80 10 3e 32 58 2d bd 44 4c 80 bd
       0.1477023 0.14111334 -0.042320438 -0.062645465
0003f0 44 79 7a be 58 87 4e bd ac 88 0c 3d b5 53 2b 3e
       -0.24460322 -0.050422043 0.034310028 0.1673115

0.bias f4 [128]
000000 45 4e 7f 3c d3 39 fe bd f4 cc 49 3e 2f ad 86 3e
       0.015582626 -0.12413373 0.1970709 0.26304004
000010 ac 68 87 bd b6 44 2f be 45 97 85 3e 83 87 67 bd
       -0.066117615 -0.17116055 0.26091972 -0.05652572
000020 9d 01 42 bd 48 53 30 3e 60 a9 b1 3c 70 4c 25 be
       -0.04736482 0.1721927 0.02168721 -0.1614244
000030 4f 06 5b 3e 54 bb e5 bd ea e5 4d 3e d5 da d7 3d
       0.21389125 -0.11217371 0.20107237 0.10539786
000040 22 4a 2c be 5c 33 87 3e 66 06 05 be 55 3a 16 be
       -0.16825154 0.26406372 -0.12990722 -0.1467069
000050 96 1b 8a 3d ce 8e 89 be dc da c3 bd 47 e6 94 bc
       0.06743543 -0.26866764 -0.095632285 -0.018176211
000060 bd 1d f1 3d ca 51 50 be 43 43 eb bc 73 28 a4 bc
       0.1177325 -0.203437 -0.028718596 -0.020038819
000070 9a 02 80 bd 22 30 f9 bd 78 0f 8f 3d 77 ec 7b be
       -0.06250496 -0.12167384 0.06985372 -0.24601923
000080 32 90 fe 3c 19 4f be bd b4 e6 14 be 72 a4 5c 3d
       0.031074617 -0.092924304 -0.14541131 0.053867765
000090 2d 7b 7e 3d d7 5c 8a 3e 11 6b 6b 3d 77 f5 49 be
       0.06212919 0.27023956 0.057475153 -0.19722544
0000a0 2d df 03 3e f6 42 cc bd 8b f6 20 bc a6 04 39 bd
       0.12878104 -0.09973709 -0.009824405 -0.04517045
0000b0 2c d1 25 be fd 8b 62 3e 22 73 04 bd df 98 43 be
       -0.16193074 0.22123714 -0.03233636 -0.19101284
0000c0 24 62 24 be 04 54 e5 bd 44 1d 19 3e 50 6a b6 bc
       -0.16053063 -0.11197665 0.1495257 -0.02226749
0000d0 20 db f3 bd 7a 57 de 3d 23 e7 06 be a5 12 88 3e
       -0.11907029 0.108565286 -0.13174109 0.26576725
0000e0 a3 41 25 bc 2d af 9b bd 03 c5 4a be 86 c7 75 3e
       -0.01008645 -0.076017715 -0.19801717 0.24001893
0000f0 e6 06 21 bd b5 f4 20 be 40 b2 5c be 2a ca 22 3e
       -0.03931322 -0.15718348 -0.21552372 0.15897432
000100 ce 6d 21 be 90 11 18 be 88 2a a9 3d b5 df 28 be
       -0.15764543 -0.1485045 0.08260065 -0.16491587
000110 3c 3a 62 be f7 af 82 be 70 59 39 bd af 42 dd 3d
       -0.22092527 -0.25524876 -0.04525131 0.108037345
000120 6f 38 d7 bd 97 7f 55 3e d0 1c 82 be b1 d6 dd bd
       -0.10508811 0.20849453 -0.25412607 -0.10831965
000130 fe 35 02 be 99 ea 08 3c bd e7 5f 3e 03 2a 39 be
       -0.12715909 0.008356714 0.21865745 -0.18082432
000140 fe d4 3e 3e 2a 01 7d 3d ec 4e 8d ba c1 f4 f1 3d
       0.18635938 0.06176869 -0.0010780967 0.11814261
000150 7d de 7d 3d 29 43 44 be 9e 6a 3c be 47 43 89 be
       0.06197976 -0.19166245 -0.18400046 -0.2680914
000160 41 99 65 3e 7a 39 78 bd 34 0b 5a 3e fb e4 a8 3c
       0.22421743 -0.06060169 0.21293336 0.020616999
000170 dd 53 a0 3d a7 c2 c7 3d dd b5 82 3e 0d 78 29 be
       0.07828496 0.09753924 0.25529376 -0.16549702
000180 91 e2 3d 3e e1 4c 18 3d ec ea 07 be 73 05 7c 3d
       0.1854346 0.037182692 -0.1327321 0.061528634
000190 f0 d8 84 3e 95 33 26 be 4b bf 29 3e 8c 62 42 3e
       0.2594676 -0.16230614 0.16576879 0.18982905
0001a0 17 f8 13 3e b4 33 78 3e 51 f5 17 3e 52 19 86 be
       0.14450108 0.24238473 0.14839675 -0.26191193
0001b0 32 e0 e2 bd 78 ad 10 be da e8 35 3e 55 9f 4d 3e
       -0.11077918 -0.14128673 0.17764607 0.20080312
0001c0 9f a4 fa 3c 88 b8 57 bd 69 a8 37 bd 68 95 3f be
       0.030596076 -0.052666217 -0.044838343 -0.18709338
0001d0 cd f2 fd bd 10 5c 22 3e 96 68 2d 3e e7 7d d0 bd
       -0.12399826 0.15855432 0.16934428 -0.10180264
0001e0 9f 59 43 be 71 d6 71 be 80 74 2d 3d 58 82 3a 3e
       -0.19077156 -0.23616959 0.04234743 0.18213785
0001f0 d8 6a 2d 3e de 81 68 bd 88 57 73 be 9b 8f d4 bd
       0.16935289 -0.056764476 -0.2376386 -0.10378953

2.weight f4 [64, 128]
000000 39 4c d8 bc 1e 43 5b 37 64 19 54 bd b5 d5 a1 3b
       -0.026403533 1.3069044e-05 -0.051782027 0.004938806
000010 4c dd 69 bd ad 64 20 3d ed 36 8b 3d 64 47 13 3d
       -0.05709581 0.039158512 0.06797586 0.035956755
000020 aa 88 81 bd d9 45 ce bc 55 18 90 3b 50 ec 1e bd
       -0.06324895 -0.02517979 0.004397432 -0.038799584
000030 a8 0c 35 bd ef 89 9d bb 1a 62 75 bd 4b 83 29 3d
       -0.044201523 -0.0048077027 -0.05990801 0.041384976
000040 a1 36 58 3d 60 20 6e bd 7f 71 5b bd bf 33 93 bd
       0.052786473 -0.058136344 -0.053575035 -0.07187604
000050 29 ab 57 bd 80 6f 51 3d 79 b6 ff bc 66 cb 40 3d
       -0.052653465 0.051131725 -0.03121494 0.047068976
000060 18 a3 d1 3c c8 9b 07 3d a6 4f 2e 3d e3 8c 53 bc
       0.025590464 0.03310755 0.042556427 -0.012912008
000070 ed b1 95 3d ea 00 83 bc 3f 0d ac 3d c7 98 c6 bd
       0.07309327 -0.015991647 0.08400964 -0.09697109
000080 bc 39 8b bd 76 4b 51 3d 6b 49 a0 bd be 6f 6a 3d
       -0.06798121 0.051097356 -0.07826503 0.057235472
000090 89 81 72 bc 2d bf 26 bd 68 2e 28 bd cc 00 36 bd
       -0.014801391 -0.040709663 -0.04105988 -0.044434354
0000a0 dd 40 ae 3d 5a 6c 9a 3d 41 a4 82 bd 29 dc 70 3d
       0.085084654 0.07540198 -0.06378985 0.05880371
0000b0 1d 9b 99 bd a9 03 ac bd c6 a0 88 bc 58 6b dc 3c
       -0.07500289 -0.083991356 -0.016678225 0.026906654
0000c0 f6 ad 91 3c a7 0f 62 bd a3 9e 56 3d ed 91 a1 3d
       0.017783146 -0.05519071 0.05239738 0.07889161
0000d0 e9 4d 77 bd 32 91 59 bd 21 98 b3 3c 0b 3d b9 bb
       -0.060377035 -0.053116985 0.021923127 -0.005653029
0000e0 9e 7b 00 bc fa 40 8f bd 7b 5b fb bc a3 5f 52 bd
       -0.007841973 -0.06994815 -0.03068327 -0.051360738
0000f0 95 6b 27 3d 8b d7 c2 3d 80 10 92 3c 58 2d fd 3c
       0.040874083 0.09513768 0.017830133 0.03090541
000100 49 fd bb 3c 6c 84 ab 3d b3 30 9f bd 7e 0c 9c 3c
       0.022947924 0.08374867 -0.077729605 0.019048925
000110 be df 8f bd fc 07 63 3d c0 ae 6a 3d d4 a5 89 3d
       -0.07025097 0.055427536 0.05729556 0.06721082
000120 4a 71 8e 3d 93 0b e9 3c 78 fc 1b 3d f0 82 1b 3a
       0.06955202 0.028447902 0.03808257 0.0005932292
000130 72 25 d7 bc 75 f5 8a bd 5b a4 8c 3c ac 1e c1 3c
       -0.026262973 -0.067850985 0.017168215 0.023574196
000140 8a 0f ae bd 87 56 a8 bd 47 c3 11 3c 2f 2d 48 ba
       -0.084990576 -0.08219629 0.008896655 -0.00076361274
000150 c9 eb 25 3d 48 a2 ab 3b 45 a8 46 bd 73 40 33 bc
       0.040508065 0.0052378513 -0.048500318 -0.010940659
000160 5c 98 38 3d 70 f5 ad 3a 24 31 a3 3d 2a 45 96 bd
       0.045067176 0.0013271999 0.07968357 -0.07337411
000170 ad ba b5 3d 4e 2f ac bb 58 65 4d bd 37 24 e2 bc
       0.08873496 -0.0052546626 -0.050145477 -0.02760516
000180 1d bd 39 bd eb 06 a3 3d 48 0a 0b 3d e1 b9 a1 bd
       -0.045346368 0.07960304 0.03394535 -0.07896782
000190 d7 71 0b bc f9 38 f9 bc 11 9c f2 bc 05 ec b1 3d
       -0.008511028 -0.030422674 -0.029615434 0.08687595
0001a0 3e ff a3 bd 82 bb 40 3d 12 fc b5 bd 5a 8b c6 3d
       -0.08007668 0.04705382 -0.08885969 0.09694548
0001b0 60 e0 a9 3b c7 53 b2 bd 70 12 92 3d 02 fd 64 bd
       0.0051842183 -0.087073855 0.07132423 -0.05590535
0001c0 31 8a 88 bd da ac 36 3d 25 e2 8e bd 68 c3 19 3c
       -0.06666983 0.044598438 -0.069767274 0.009384967
0001d0 1e f4 9d 3d 8c 49 48 3c 26 d4 12 bd ab dc bb 3d
       0.07712577 0.012224566 -0.03584685 0.091729484
0001e0 f2 29 80 bc d8 da ba bd 9f 6a a3 3d f7 ee 3d bc
       -0.015645001 -0.091237724 0.07979321 -0.011592618
0001f0 41 a5 1e 3d ca a7 94 3d 21 01 ad 3d c6 eb af 3d
       0.038731817 0.07258566 0.08447481 0.08589892
000200 c4 62 93 3d 3b 6a 94 3d d4 c5 8f bd c3 d0 a3 3c
       0.071965724 0.07246824 -0.070201546 0.019997006
000210 65 f6 97 3d fb b3 b1 bd 56 08 40 3d b3 c7 68 bc
       0.07420043 -0.08676907 0.04688295 -0.014207768
000220 8f 3d 36 bd 3a da 64 bd f4 6d 58 bd f7 a2 36 bd
       -0.0444923 -0.05587218 -0.052839234 -0.04458901
000230 1a 55 ab 3b 77 43 84 3c 71 46 36 bd c8 2a f5 bc
       0.0052286508 0.016145451 -0.044500772 -0.029927626
000240 a0 0f 2b 3c 9e 6e 19 bd d5 91 6b 3d a4 ba 9c 3d
       0.010440737 -0.03745901 0.057512123 0.076527864
000250 dc 92 83 bd 6c b1 1d bd 22 de 9e bd 1a 48 d9 bb
       -0.064244956 -0.03849928 -0.07757212 -0.0066309096
000260 4f d1 43 3b b1 11 1b bd e8 93 99 bd 8e 20 95 bd
       0.0029879396 -0.03785867 -0.07498914 -0.072816
000270 c7 c8 c5 bc 94 31 9e 3d 82 78 a9 bd 05 44 38 3c
       -0.02414359 0.077243 -0.08274938 0.011246686
000280 d2 cf 48 bc 37 7f 16 3d 82 7e 6b 3d 04 5f 7c bd
       -0.0122565795 0.036742415 0.057493694 -0.06161405
000290 cf 1e a7 3c 58 17 02 bd a9 b3 bb bc 58 63 61 3d
       0.020400433 -0.031760544 -0.022912817 0.055026382
0002a0 a2 14 b2 bd 05 4c b7 3d 48 d7 6c 3d 38 54 5e 3a
       -0.08695342 0.089500464 0.057822496 0.00084811775
0002b0 cd 67 b5 bd ba a0 11 3d 7a 1a 7b 3d d8 33 0c 3d
       -0.08857689 0.03555367 0.061304547 0.03422913
0002c0 27 28 56 bd 50 75 fe bb ae e6 84 3d c2 73 83 3d
       -0.052284386 -0.0077654496 0.06489311 0.064185634
0002d0 a1 24 a7 bd df 70 9c bd 7a 32 80 3d cd 24 fe bc
       -0.08161283 -0.07638716 0.06259628 -0.031023407
0002e0 3f 34 f5 3c 31 c6 a9 bd ba 54 4b bd 02 2a 75 39
       0.02993214 -0.08289755 -0.04964135 0.0002338067
0002f0 bc 23 7e bc 93 6b a6 bd d7 30 97 bd f2 cc ab 3c
       -0.015511449 -0.08125987 -0.07382362 0.020971749
000300 36 74 8a 3d 7b 56 8a 3c c9 e7 ea 3c cc f9 52 3d
       0.06760447 0.01688694 0.028674977 0.051507756
000310 17 89 aa 3d f7 73 e6 bc 0c 31 ab bd 51 ca 46 3d
       0.08326929 -0.028131468 -0.08358964 0.048532788
000320 c8 f5 4e bd e7 8d 9e bd d9 21 99 bc 51 ad d2 bc
       -0.050527364 -0.077419095 -0.018692898 -0.02571741
000330 03 b6 a9 bd 5a 19 6e bd 8b 1b bd 3b 14 2e 29 bd
       -0.08286669 -0.058129646 0.0057711056 -0.04130371
000340 32 85 8b 3d a2 57 55 bd 11 5e 54 3d 0c 10 7c bd
       0.06812514 -0.052085526 0.05184752 -0.06153874
000350 45 7e ac bd 3c d0 8c bd 96 8e 4e bd ca dc 52 bd
       -0.084225215 -0.06875655 -0.05042895 -0.051480092
000360 cd 53 b7 3d e4 eb 28 bc 90 5c 71 bb 11 84 8b 3d
       0.089515306 -0.010310147 -0.0036828853 0.06812299
000370 0b 16 bb 3d 68 eb 8d bd dd 9b 91 ba b2 a1 b1 3d
       0.09135064 -0.06929666 -0.0011109073 0.08673419
000380 a2 58 01 3c e4 a4 83 3d 09 fb 39 bd 10 7b 59 3d
       0.007894667 0.06427935 -0.04540542 0.053095877
000390 8c 17 ea bc de 01 7b bd 97 f6 15 3d ba a6 7e bd
       -0.028575681 -0.061281078 0.03661212 -0.06217072
0003a0 5d 09 81 3d 1a e1 3a bd 6b 71 28 bc a3 0a a2 3d
       0.06300614 -0.04562483 -0.010280947 0.07912185
0003b0 e8 41 1c 3c 56 2b 77 3d 6d 5d 80 3c 45 69 7e 3d
       0.009537198 0.060344063 0.015669549 0.06211211
0003c0 f0 5e e7 3c 90 87 17 bc 11 5c 87 3d 48 8c 6d bc
       0.028243512 -0.009248629 0.06609357 -0.014498778
0003d0 d8 e5 eb 3c 6b bd af bd 0b 15 91 bd b4 de 33 3d
       0.028796121 -0.085810505 -0.07084092 0.043913558
0003e0 d4 db 22 bd 9c f3 af bd e6 81 36 3d 58 88 57 3d
       -0.039760426 -0.08591387 0.044557475 0.052620262
0003f0 ea 24 4c 3d f7 93 21 3d b2 26 1a 3d 77 fb 8b 3d
       0.04983989 0.03944775 0.03763456 0.068350725

2.bias f4 [64]
000000 a4 85 3b bd 64 54 82 3d 94 0d 35 3d 5b 53 a5 bd
       -0.045781747 0.063637525 0.044202402 -0.080725394
000010 15 20 8f 3b 04 de f7 3c a0 32 02 3d 30 0f 16 3d
       0.004367838 0.030257232 0.03178656 0.036635578
000020 2a 0d 24 3d dc c6 60 3d 3d 46 aa bd 18 a0 d8 3c
       0.040051617 0.054877147 -0.08314178 0.026443526
000030 a9 b0 83 3d 7c e3 7e bd 43 f0 9e 3c 82 59 32 3d
       0.064301796 -0.062228665 0.019401675 0.043542393
000040 d8 b5 05 3d 60 63 85 3d a3 2c 73 bd 3d 0b 78 3d
       0.032644123 0.06513095 -0.05936874 0.060557593
000050 e7 ec 75 3d ca 7c 3d bd 4d 61 a3 3b 6d 5a 08 bd
       0.06004038 -0.046261586 0.0049859644 -0.03328936
000060 35 46 94 bd 4c 3a 62 3c f7 99 c9 3c 2b 65 93 3d
       -0.072399534 0.013807844 0.024609549 0.07197031
000070 cd 61 36 3c db e4 81 3d 7e c9 0b 3d 3a 72 e3 3b
       0.011131716 0.06342479 0.034127705 0.006941107
000080 00 8b 8e 3d c0 65 b0 bd f7 2c 4b 3c c8 41 99 3d
       0.06960106 -0.08613157 0.012400857 0.0748325
000090 b8 ae 9f 3c d8 0c 02 bd 06 da 46 bd 7f fb 6b bd
       0.019492492 -0.03175053 -0.048547767 -0.057612892
0000a0 3e d5 e6 bb 44 25 81 3d 2b 08 29 bd de b3 a8 3d
       -0.0070444634 0.06305936 -0.041267555 0.08237432
0000b0 e2 5c 14 bd df 55 68 3d f4 fa 8c 3b 53 48 9c bd
       -0.036221392 0.056722518 0.004302377 -0.07630982
0000c0 6e 68 ad 3d 06 7a a0 bd 84 39 39 bd 47 44 93 ba
       0.08467184 -0.07835774 -0.045220867 -0.0011235558
0000d0 42 e8 9e 3d bd b6 48 bd 9f d3 b6 3c 22 66 1e 3d
       0.077591434 -0.049002398 0.022317706 0.03867162
0000e0 3b cb 6d bd 62 3f 8e bd 1e c1 f7 bc ce 01 69 bd
       -0.058055144 -0.06945683 -0.030243453 -0.056886487
0000f0 aa c9 67 bd 26 a1 07 3d 42 f4 a9 3d 62 cd 52 bd
       -0.056588806 0.033112668 0.082985416 -0.0514654

4.weight f4 [3, 64]
000000 60 57 a6 3d f2 e3 94 bb 25 78 50 bd be 6e cc 3d
       0.08122134 -0.0045437748 -0.05089583 0.0998206
000010 67 c2 f1 3d 3c d5 6c 3d c0 82 ac 3c e4 59 9c 3d
       0.118046574 0.057820544 0.02105844 0.07634333
000020 df 13 8c 3c 0a a4 d0 3d a6 25 83 bd 87 cb 15 3e
       0.017099319 0.10187538 -0.06403665 0.14628421
000030 59 9d 05 3e bd ef 51 bc 5b ca a9 3d 79 70 82 3d
       0.13048305 -0.012813506 0.08290549 0.06369109
000040 41 e0 5b 3d 22 47 f8 3c 4d 66 87 bd 33 3d 81 bd
       0.053680662 0.030307356 -0.06611309 -0.06310501
000050 c7 d8 be bd c6 85 b3 bb c9 75 26 3d 1e 5a 3b bd
       -0.09318691 -0.0054785935 0.040639672 -0.04574024
000060 31 c5 c0 bd cc 8c bd 3d 81 b5 cd 3d 77 47 b7 3d
       -0.09412611 0.092553705 0.10044385 0.08949178
000070 89 4c a2 bd 52 9d 9c 3d f8 11 03 bd 93 5f f7 bc
       -0.07924754 0.07647194 -0.03199956 -0.03019694
000080 4d 71 e9 3d a0 24 08 bc 1d 2a 04 3e 36 ef d9 bc
       0.113985635 -0.008309513 0.1290669 -0.026603322
000090 32 89 62 bd ae 66 55 bd fd e0 33 bc 0b 1e 26 bd
       -0.05530662 -0.052099876 -0.010978934 -0.040555995
0000a0 13 4a be bc 08 0a 82 3d 65 44 01 3e ca cf 9d bd
       -0.02322868 0.063495696 0.12623747 -0.07705648
0000b0 37 12 94 bc 89 0d ac 3d cc f9 02 3e 28 9d 0b 3e
       -0.018075092 0.08401019 0.12790602 0.13634169
0000c0 ab e8 97 bd 41 c9 00 3e f6 02 52 bd 04 04 a4 bd
       -0.07417425 0.12576772 -0.051272355 -0.080085784
0000d0 0d 28 cf 3d e0 2b bd 3d 39 89 e0 bc 96 1d 89 3d
       0.10115061 0.09236884 -0.027409183 0.06695096
0000e0 16 e8 c5 3b 19 63 da 3d c7 80 b8 3d 54 76 9a 3d
       0.0060396297 0.10663433 0.09008937 0.075421005
0000f0 a8 7e 92 ba c2 05 26 bc ea f7 9a 3d 7b 43 a6 bd
       -0.0011176663 -0.010133209 0.07566817 -0.0811834
000100 91 6d d4 bd e5 7f 29 bc ff ed 87 bd fb 0d 85 3c
       -0.10372461 -0.010345434 -0.06637191 0.016242018
000110 cd d0 f3 3d c4 24 d1 bd 03 5c e9 bd 9d e3 95 bd
       0.1190506 -0.102120906 -0.11394503 -0.073188044
000120 53 0f a4 bd f6 a3 14 be 4f c9 25 bb a0 17 87 bc
       -0.08010735 -0.14515671 -0.0025296991 -0.016490757
000130 bf 82 39 3e ba 32 70 bc 85 c1 02 3e 30 2e 05 bd
       0.18116282 -0.014660532 0.12769134 -0.03251475
000140 fd 72 15 3e 03 1e 78 3d 76 90 fb bd 56 4d 31 ba
       0.14594646 0.060575496 -0.12283413 -0.0006763538
000150 0d c4 00 be d5 a6 7e bd 28 e9 22 be 4a 2f 3f 3e
       -0.12574787 -0.062170822 -0.15909255 0.18670383
000160 c4 4d 90 bd 20 bd 3d 3d 11 e6 14 3e 91 88 7d bc
       -0.070460826 0.04632294 0.14540888 -0.0154744545
000170 5e 97 48 bc 1b 27 e2 3d 70 10 33 3e ad a9 12 3e
       -0.01224312 0.11042615 0.17486739 0.14322539
000180 07 76 12 be ff 16 1c 3d 63 18 88 bd 77 c5 6f 3d
       -0.14302836 0.03810787 -0.066452764 0.058537927
000190 28 29 e6 bd 0d 26 ce 3c 80 b1 0e be f7 08 c2 3d
       -0.11238319 0.025164628 -0.13934898 0.09474366
0001a0 2a 40 bd 3d 6d 62 b9 3b a9 be 08 be 74 57 36 3e
       0.09240754 0.005657485 -0.13353981 0.17806798
0001b0 21 7a 28 3e 6c 68 7b bd 9d 31 94 bd c7 8f 54 be
       0.16452838 -0.06137888 -0.072360255 -0.20757972
0001c0 0e ca a2 3d a5 9f 1b 3e 99 de bd bc 46 6f 47 bc
       0.07948695 0.15197618 -0.023177432 -0.012172526
0001d0 0d 9c cb 3d 93 88 97 bd 13 69 12 3e 33 91 8f 3d
       0.09941874 -0.07399096 0.14297895 0.070101164
0001e0 53 07 00 3e 3b d6 f8 3b 9a 73 dc 3d ac 40 ad bd
       0.12502794 0.0075938976 0.10764237 -0.08459601
0001f0 f3 e9 bc 3c d8 b1 62 be 8f b3 22 3e 51 82 30 bd
       0.023060774 -0.22138155 0.15888809 -0.04309303
000200 c9 11 eb 3d 7a f9 03 3d 01 bc 97 3c 75 b5 17 3d
       0.114780016 0.03222034 0.018522264 0.037038285
000210 64 d3 7c 3e 08 5f 8b 3d 7a a9 9e 3d a3 99 2b 3d
       0.24690014 0.06805235 0.07747169 0.041894566
000220 44 63 c1 bc 90 de 26 be 28 2d bf bc 64 d0 17 bc
       -0.023606904 -0.16295838 -0.023336962 -0.009265993
000230 9f 68 c7 bd 40 72 0e be e7 e6 a5 3d f3 8e d7 3c
       -0.09736752 -0.1391077 0.08100682 0.02631328
000240 4f d9 f3 bd f6 8d 81 bd fe 47 00 3e cc c6 4b bd
       -0.11906683 -0.06325905 0.12527463 -0.049750134
000250 dd 1d ef 3d e6 30 71 bc e0 23 48 3d 1e 11 9f bd
       0.11675618 -0.014721131 0.048862338 -0.07766937
000260 a9 9f 4c 3d 60 15 8f 3d b0 3a 73 be c3 ee 8f bd
       0.04995695 0.06986499 -0.23752856 -0.07027962
000270 07 03 95 bd c4 22 d8 bd b0 e2 b9 3d 4b 2c 88 3d
       -0.07275968 -0.10553506 0.0907644 0.06649073
000280 e3 9a 10 be de 77 52 3e 33 d6 89 be 80 00 77 be
       -0.14121585 0.20553538 -0.26921234 -0.24121284
000290 71 a8 0f 3e d8 07 ee bd bc 45 37 3d ce 53 1d be
       0.14029099 -0.1162259 0.04474424 -0.15364
0002a0 fb 94 d4 bc c6 30 25 3d dc de 00 3e 31 80 5b bd
       -0.025949946 0.040329717 0.12585014 -0.05358905
0002b0 e3 6c 3d be f9 f3 66 bd 93 e2 32 3e d3 90 76 3e
       -0.18498568 -0.056385014 0.17469244 0.24078684
0002c0 1c 2c bb ba 66 de 2b 3e 97 0c 44 bb d9 4e 44 3e
       -0.0014280113 0.16784057 -0.002991473 0.19170703
0002d0 7c 45 ac 3d be 84 2f 3c 08 b1 8b 3c f9 88 46 be
       0.084116906 0.010712801 0.017052189 -0.19388188
0002e0 bc d2 9d 3d 12 9e 3e bd 1a 5d 6e 3e 40 ec 0f be
       0.0770621 -0.046537466 0.23277703 -0.14054966
0002f0 a8 df 3f be 92 5e 96 3e 49 cb 47 be 36 d5 2d 3e
       -0.18737662 0.29369026 -0.19511141 0.16975865

4.bias f4 [3]
000000 a6 53 99 3d 1f 37 7c 3d a2 a1 e8 3d
       0.07486658 0.061576005 0.11358954
